Hybrid_Factor_Mining_GP/output/models/gru_best.pth (torch, 173860 bytes, 11 tensors)

gru.weight_ih_l0 f4 [192, 15]
-0.07876102 -0.023390438 -0.12970707 -0.08236101 0.043007083 -0.051053993 -0.108941585 -0.0844989
-0.04235056 0.040273927 0.0061526224 -0.106615975 0.010168492 0.023804966 -0.02288882 -0.08211038
-0.007039503 4.7735528e-05 0.036885794 0.05695675 0.021956347 -0.01705551 -0.011006261 0.085515745
-0.04274615 -0.041582406 -0.11752833 -0.013892157 -0.1147087 -0.07690439 0.09283876 -0.058286775
0.09690874 0.12043072 0.11613633 0.11267746 -0.045719847 0.11718968 -0.11717687 -0.06857687
0.032398015 0.04750785 -0.0044214833 -0.013965787 -0.124234356 -0.1142361 0.010145628 -0.014181984
-0.09052931 -0.08679867 -0.12958089 -0.12169926 0.05047156 -0.11978389 -0.11056012 -0.091493264
0.0906239 -0.00015477902 -0.11871351 0.069106996 0.0019213479 -0.12922662 -0.13787034 0.01138902
0.08130285 -0.1579291 0.061785426 -0.12548342 0.0035232604 -0.039977316 -0.053943183 -0.108705625
-0.024678465 -0.06557341 0.0076453723 -0.089803666 0.04918545 0.06942593 0.050678354 0.0336342
-0.10608064 0.0027995915 -0.04467993 -0.09862153 0.013696808 -0.07496762 0.08055891 0.07177672
0.03539529 0.027877873 0.10640889 -0.068929516 0.04689884 -0.08316461 0.06844974 0.111624524
-0.0060296236 0.08541348 0.10012502 0.088430606 -0.06187985 -0.010611839 -0.038017523 -0.004608346
-9.934848e-05 0.07553731 -0.107522324 0.055357877 0.012943433 -0.023977743 0.12071172 0.08260436
0.088846415 -0.06427889 0.09274733 0.10865928 -0.03923533 0.08994749 0.07918832 0.026701404
-0.10114668 0.056544185 0.10098253 0.08569908 -0.12727888 0.05909861 0.008441644 -0.11553401
0.072711125 0.07342318 -0.053415824 -0.044664357 -0.027886717 0.025880555 0.0051094447 -0.070632674
-0.094269015 0.06200957 -0.098981164 0.023844998 -0.011647392 -0.09277622 0.031681906 0.12443886
-0.029274443 -0.04044533 0.07109874 0.004921618 -0.055183668 0.109492086 0.0647493 0.06932799
-0.04392468 0.032184314 0.052031327 -0.014738202 -0.01314787 -0.028921992 0.013274641 0.090619706
-0.05285639 0.102917925 -0.051610906 -0.04188944 0.02579802 -0.006225527 -0.03536145 0.065952
-0.019239156 -0.10550198 0.055925805 -0.058938894 0.05298731 -0.064649045 -0.11055569 0.016305774
0.049154226 -0.022044567 -0.07861923 0.09615286 -0.09613391 0.058382116 0.13488922 0.1353389
0.09565038 0.0142128505 0.053658806 -0.036408417 -0.04554289 0.121380605 0.05695314 -0.09202706
0.058675 0.030743938 -0.090245716 -0.13940842 0.072047085 -0.0604775 -0.13162193 -0.0090981545
-0.055160966 -0.11714926 -0.095566094 -0.1120055 0.08485708 -0.09041393 0.05769729 -0.008785307
-0.12977006 -0.05988982 0.10876078 -0.012953967 -0.08726654 -0.00057791284 0.062007587 0.05882465
0.00411421 0.05746349 0.11278807 0.13305587 0.12097771 0.007787095 0.093079664 0.056286775
0.06287642 0.036952898 -0.093201704 0.026674518 -0.017298488 -0.040661976 0.04250671 0.047298864
0.061592452 0.02151545 -0.09919541 0.027703525 0.016147455 0.1180844 0.11441893 0.024922634
0.11182252 -0.043713666 -0.0047909394 -0.09689154 0.07041116 -0.07212825 -0.08826223 -0.1127069
-0.111490324 0.101780966 0.09577578 -0.09494145 0.018886922 0.058085874 0.10709982 0.03368938
00000000: 754d a1bd 4e9d bfbc eed1 04be e4ac a8bd
00000010: 3228 303d fe1d 51bd c41c dfbd c20d adbd
00000020: c877 2dbd 46f6 243d f09b c93b 7a59 dabd
00000030: bf99 263c a202 c33c 5681 bbbc 7d29 a8bd
00000040: a2ab e6bb a237 4838 8f15 173d 7b4b 693d
00000050: ccdd b33c ffb7 8bbc 9b53 34bc e122 af3d
00000060: 9616 2fbd 5052 2abd b1b2 f0bd ee9b 63bc
00000070: 65ec eabd 0c80 9dbd 3f22 be3d 1dbe 6ebd
00000080: 1778 c63d 62a4 f63d e2d8 ed3d 71c3 e63d
00000090: bc44 3bbd 2501 f03d 6dfa efbd 0872 8cbd
000000a0: c8b3 043d 9797 423d 17e2 90bb c2d0 64bc
000000b0: 956e febd 9ef4 e9bd d939 263c 8d5b 68bc
000000c0: 6e67 b9bd 80c3 b1bd dab0 04be 763d f9bd
000000d0: 44bb 4e3d 4251 f5bd 586d e2bd d260 bbbd
000000e0: 0699 b93d 2d4c 22b9 1220 f3bd f887 8d3d
000000f0: bdd5 fb3a fc53 04be e22d 0dbe 0399 3a3c
00000100: 1c82 a63d 2ab8 21be b712 7d3d ba7e 00be
00000110: 80e6 663b 41bf 23bd 87f3 5cbd 0ea1 debd
00000120: 7e2a cabc 5a4b 86bd 0886 fa3b fcea b7bd
00000130: af76 493d 2f2f 8e3d 1b94 4f3d 04c4 093d
00000140: ce40 d9bd 5a79 373b 4d02 37bd 16fa c9bd
00000150: 9468 603c a088 99bd 12fc a43d acff 923d
00000160: a7fa 103d 2360 e43c e7ec d93d eb2a 8dbd
00000170: 0019 403d 3552 aabd 612f 8c3d 669b e43d
00000180: 2694 c5bb 43ed ae3d 590e cd3d 1b1b b53d
00000190: ba75 7dbd 47dd 2dbc 43b8 1bbd 9c01 97bb
000001a0: 4f59 d0b8 4eb3 9a3d aa34 dcbd f1be 623d
000001b0: b110 543c f96c c4bc b537 f73d 7a2c a93d
000001c0: 1cf5 b53d a7a4 83bd 50f2 bd3d c288 de3d
000001d0: 3ab5 20bd 6436 b83d 7c2d a23d e7bc da3c
000001e0: fe25 cfbd e09a 673d eecf ce3d 0083 af3d
000001f0: 6555 02be 6211 723d d24e 0a3c 189d ecbd
00000200: 92e9 943d e45e 963d 8dca 5abd f9f1 36bd
00000210: af72 e4bc 7503 d43c 216d a73b dda7 90bd
00000220: 1d10 c1bd bffd 7d3d a3b6 cabd 9656 c33c
00000230: b4d4 3ebc 7501 bebd e3c4 013d cdd9 fe3d
00000240: f5d0 efbc 01aa 25bd 379c 913d 8645 a13b
00000250: 4508 62bd 633d e03d 489b 843d d5fb 8d3d
00000260: 5eea 33bd b3d3 033d cd1e 553d 8078 71bc
00000270: 2a6a 57bc d0ed ecbc e17d 593c d396 b93d
00000280: f17f 58bd a2c6 d23d f565 53bd 4394 2bbd
00000290: 5f56 d33c 81ff cbbb 2bd7 10bd d811 873d
000002a0: 6f9b 9dbc 6c11 d8bd 7512 653d e969 71bd
000002b0: 3909 593d b866 84bd 066b e2bd b093 853c
000002c0: f155 493d cf96 b4bc 1e03 a1bd caeb c43d
000002d0: dbe1 c4bd 1622 6f3d 6620 0a3e 4896 0a3e
000002e0: 59e4 c33d 04dd 683c 56c9 5b3d fe20 15bd
000002f0: 2e8b 3abd 6596 f83d b247 693d af78 bcbd
00000300: 3255 703d b6da fb3c bfd2 b8bd 15c1 0ebe
00000310: 6c8d 933d 41b7 77bd e6c7 06be 6d10 15bc
00000320: 77f0 61bd f4eb efbd 28b8 c3bd 2463 e5bd
00000330: 8cc9 ad3d f02a b9bd fe53 6c3d 40f0 0fbc
00000340: 71e2 04be 074f 75bd f9bd de3d e03c 54bc
00000350: cdb8 b2bd 137f 17ba abfb 7d3d 1ef2 703d
00000360: 7fd0 863b d65e 6b3d 6ffd e63d cc3f 083e
00000370: 29c3 f73d e32a ff3b 8da0 be3d f68c 663d
00000380: 5ac5 803d ec5b 173d 89e0 bebd 8584 da3c
00000390: 8fb5 8dbc 2c8d 26bd 841b 2e3d 74bc 413d
000003a0: 5e48 7c3d 2b41 b03c f726 cbbd 81f2 e23c
000003b0: ab47 843c 3cd6 f13d 7954 ea3d 8d2a cc3c
000003c0: 3503 e53d 1a0d 33bd 50fd 9cbb 126f c6bd
000003d0: ba33 903d fab7 93bd d4c2 b4bd e0d2 e6bd
000003e0: 0a55 e4bd 8a72 d03d 1826 c43d aa70 c2bd
000003f0: bfb8 9a3c 74eb 6d3d 2757 db3d e0fd 093d

gru.weight_hh_l0 f4 [192, 64]
0.0031568706 0.14167312 -0.05573651 -0.13046648 -0.07297174 0.093241826 -0.13587752 0.032231033
-0.018977936 -0.12194444 -0.02849259 -0.02729069 0.07297237 0.007557053 -0.038660552 0.016791973
-0.034094892 -0.046569135 -0.06974334 -0.053785764 0.021248454 -0.09272158 -0.035360575 0.02738476
0.020058915 0.07933654 0.090199225 0.025747722 0.07801802 0.040638436 0.07792669 0.08721789
-0.01862291 0.033768367 0.019153109 0.0035002881 -0.0036422634 -0.06266476 -0.061456207 -0.05860283
0.115892716 0.014063963 -0.04876334 0.09718853 0.008384041 0.08039423 0.042559817 0.033079136
0.013042454 0.13765109 -0.099495836 -0.01644672 -0.11185346 0.05822091 0.049115058 0.03325018
-0.08327769 0.039490033 0.07483227 -0.089060634 0.10502465 -0.016223898 0.055326205 -0.065619476
-0.052648064 0.08655695 0.066820346 0.052163348 0.0007754821 0.05168424 0.019592006 0.12668982
-0.13506459 -0.054522462 -0.0806487 0.052170914 -0.071340844 0.10902987 0.030138547 -0.0049603963
0.039620712 0.060507275 -0.021593805 -0.024999335 -0.061303463 -0.02732284 0.0055661886 0.085510135
0.02503103 -0.088251345 0.012693589 0.095144324 0.012092728 0.013584536 0.057831537 -0.1122306
-0.113384575 0.07621606 0.0007771949 -0.0547895 -0.103847995 0.116112895 -0.070228286 0.10267847
-0.08872634 0.016980082 -0.09918154 -0.03298774 0.12930101 -0.07321721 0.010084238 0.050867435
0.074204735 -0.056649175 -0.052372146 -0.13271514 -0.062904984 -0.011184413 0.011601838 -0.09813075
0.14445238 0.04587361 -0.0060653985 -0.005229785 0.028846104 -0.15355085 -0.038387246 -0.060560185
0.053556554 0.10955535 0.014498121 0.077348925 0.09015239 0.04533447 0.031580362 -0.11474993
0.047760338 0.01634635 -0.064014174 0.09330727 -0.057642158 -0.06834724 0.10048296 -0.101040475
-0.07163847 -0.13503005 -0.056506597 0.05973139 0.08284839 -0.13216047 -0.023985242 0.09027587
-0.084799856 -0.085810766 0.11056603 0.033612896 -0.0364415 -0.10282455 -0.06768813 0.1275124
-0.09873008 -0.1133544 0.0223535 0.04829709 -0.12923586 0.115514934 0.05008695 -0.07153224
-0.11425619 0.03411496 0.090186626 0.11502107 0.026284091 -0.03876034 -0.0884008 0.03449201
-0.01760944 -0.038800113 -0.066030376 -0.052661758 -0.010485197 0.010451819 -0.11757561 0.109419554
-0.019466944 -0.02539196 -0.02604515 -0.06307461 -0.08497351 -0.11678498 -0.013229513 0.036298037
0.044147354 -0.026476469 -0.1488175 -0.123560265 0.0324241 0.10897226 -0.16345362 0.07959366
0.105204456 0.02557883 0.07537632 0.009070102 0.104723185 0.05843776 -0.12906703 0.12725784
0.012581763 0.06354892 -0.084581755 0.034413077 0.14071071 -0.018941585 0.05898907 0.09735354
-0.015511255 0.08816904 -0.048130535 -0.10456187 -0.0018062558 0.006212747 -0.058703758 0.107428335
0.05267497 -0.17167501 -0.028992819 -0.04088198 -0.1194184 0.14719845 -0.020018332 0.007763564
-0.15393779 0.06769127 -0.11493995 0.00814385 -0.018449131 -0.1427156 0.10632022 -0.0026861508
-0.061849963 -0.0019994988 0.060361706 0.06339677 -0.12991616 -0.09434686 0.005355677 0.021470731
-0.05863828 -0.055798694 0.01739389 0.06827692 -0.03936341 -0.16017804 -0.14489526 -0.023352887
00000000: 80e3 4e3b c212 113e f74b 64bd 0199 05be
00000010: 3572 95bd 92f5 be3d 7a23 0bbe b004 043d
00000020: 9e77 9bbc 02be f9bd 4b69 e9bc ba90 dfbc
00000030: 8a72 953d 28a1 f73b 875a 1ebd 528f 893c
00000040: 16a7 0bbd 47bf 3ebd 99d5 8ebd 764e 5cbd
00000050: 3d11 ae3c d0e4 bdbd 40d6 10bd 0156 e03c
00000060: 9852 a43c 327b a23d 5fba b83d e3ec d23c
00000070: e9c7 9f3d 7d74 263d 0798 9f3d 4b9f b23d
00000080: 138f 98bc b350 0a3d fbe6 9c3c 1765 653b
00000090: 0ab3 6ebb 6256 80bd 81b9 7bbd 8509 70bd
000000a0: 2959 ed3d 896c 663c 11bc 47bd c80a c73d
000000b0: 375d 093c bba5 a43d 3453 2e3d fd7d 073d
000000c0: 04b0 553c 68f4 0c3e 79c4 cbbd 46bb 86bc
000000d0: 6d13 e5bd 0d79 6e3d df2c 493d 5731 083d
000000e0: 7e8d aabd 4dc0 213d a941 993d 6c65 b6bd
000000f0: 2a17 d73d fbe7 84bc bb9d 623d 8163 86bd
00000100: 7fa5 57bd c544 b13d 1bd9 883d 3ca9 553d
00000110: b949 4b3a dbb2 533d 6a7f a03c faba 013e
00000120: 5f4e 0abe f252 5fbd 252b a5bd 2bb1 553d
00000130: 261b 92bd 0d4b df3d 1de5 f63c d28a a2bb
00000140: 5449 223d 7ad6 773d 7ee5 b0bc 68cb ccbc
00000150: 5719 7bbd 26d4 dfbc 9364 b63b f01f af3d
00000160: e00d cd3c 1fbd b4bd c5f8 4f3c 07db c23d
00000170: 9420 463c ac91 5e3c c3e0 6c3d 28d9 e5bd
00000180: 2c36 e8bd 2a17 9c3d abbc 4b3a f46a 60bd
00000190: 42ae d4bd 99cc ed3d d9d3 8fbd 1749 d23d
000001a0: 28b6 b5bd d019 8b3c b11f cbbd 271e 07bd
000001b0: 7c67 043e e8f2 95bd 5c38 253c 5f5a 503d
000001c0: a7f8 973d f708 68bd 2d84 56bd 7ae6 07be
000001d0: 54d4 80bd d43e 37bc a315 3e3c c6f8 c8bd
000001e0: 53eb 133e f7e5 3b3d 40c0 c6bb 9e5e abbb
000001f0: aa4e ec3c 6f3c 1dbe f23b 1dbd f50d 78bd
00000200: 1e5e 5b3d 8e5e e03d 8789 6d3c 1d69 9e3d
00000210: d1a1 b83d a3b0 393d 695a 013d 0302 ebbd
00000220: 58a0 433d c8e8 853c dd19 83bd e217 bf3d
00000230: 2f1a 6cbd a3f9 8bbd 03ca cd3d 4fee cebd
00000240: 31b7 92bd 5145 0abe 7673 67bd e7a8 743d
00000250: 6bac a93d 1355 07be b37c c4bc 8ee2 b83d
00000260: 8cab adbd 8ebd afbd 7170 e23d adad 093d
00000270: af43 15bd ad95 d2bd 13a0 8abd 9c92 023e
00000280: ff32 cabd 5a26 e8bd b01e b73c 2bd3 453d
00000290: 6856 04be 1893 ec3d f927 4d3d 7f7f 92bd
000002a0: 26ff e9bd 21bc 0b3d c4b3 b83d 2b90 eb3d
000002b0: bc51 d73c 2ac3 1ebd 7b0b b5bd 7e47 0d3d
000002c0: ac41 90bc deec 1ebd ef3a 87bd dbb3 57bd
000002d0: 1bca 2bbc 1b3e 2b3c 7bcb f0bd 5c17 e03d
000002e0: 2479 9fbc cd02 d0bc a35c d5bc 432d 81bd
000002f0: 9706 aebd f72c efbd 99c0 58bc 40ad 143d
00000300: dbd3 343d 2ee5 d8bc 9d63 18be 2a0d fdbd
00000310: 22cf 043d d92c df3d 6360 27be 0002 a33d
00000320: 6f75 d73d b28a d13c e65e 9a3d c49a 143c
00000330: 1c79 d63d 6f5c 6f3d 262a 04be e14f 023e
00000340: bd23 4e3c f025 823d 3339 adbd baf4 0c3d
00000350: 7816 103e 622b 9bbc 869e 713d 4b61 c73d
00000360: eb22 7ebc f891 b43d 8624 45bd 8924 d6bd
00000370: e3bf ecba 4d94 cb3b 5a73 70bd 6303 dc3d
00000380: b6c1 573d 93cb 2fbe 5982 edbc dd73 27bd
00000390: a291 f4bd 31bb 163e 7cfd a3bc 7f65 fe3b
000003a0: dea1 1dbe b8a1 8a3d a365 ebbd c86d 053c
000003b0: a222 97bc 0a24 12be 6abe d93d 220a 30bb
000003c0: 6356 7dbd 060a 03bb d63d 773d 2ad6 813d
000003d0: be08 05be ed38 c1bd ad7e af3b 63e3 af3c
000003e0: b12e 70bd 2c8d 64bd a27d 8e3c c5d4 8b3d
000003f0: 873b 21bd b605 24be 6c5f 14be 8e4e bfbc

gru.bias_ih_l0 f4 [192]
0.061881844 0.063185915 0.0009815408 0.04930656 0.08748124 0.0052203187 0.06980927 0.10258954
0.023936296 -0.1252401 -0.069759764 -0.10309508 -0.02582519 0.030884527 -0.0033124138 0.017126128
-0.06677343 0.1279863 0.07620222 0.08875563 0.008815454 0.011492759 -0.10537679 0.050256725
-0.030568574 -0.023609735 0.018703328 -0.12659243 -0.019645255 0.11379202 0.115838684 -0.047634978
0.03778221 -0.0063732928 -0.042774435 -0.04731636 0.1004687 -0.09423452 -0.063262306 0.11909234
-0.116554536 0.022001164 -0.0092361495 0.0037721305 -0.07213122 0.012579139 -0.0990768 -0.113288194
-0.048317827 0.11377615 0.07594552 0.01661888 0.12279335 0.022101732 -0.07793951 -0.048833538
-0.0004898883 -0.040648006 0.017328747 0.06353804 0.09064913 0.02577451 0.0946858 0.09762954
-0.060489107 0.016966771 0.14806382 0.011671596 -0.078461885 0.13785559 -0.060780395 0.12233047
0.018511051 0.00521074 -0.05412476 0.099374816 -0.050768904 0.15043911 0.026991135 0.033487223
0.06631918 -0.07320509 -0.015637204 0.119746886 0.12950261 0.05665253 -0.043184854 -0.07652322
0.06457042 0.017768295 0.008895353 -0.09379837 0.08553337 -0.10097643 0.03734931 -0.0450178
-0.027986098 0.00243477 -0.006766826 0.06315772 0.10445872 0.048715573 0.120093696 0.064075835
0.0018852963 0.08212391 0.12908107 0.16870348 -0.014061255 0.076477155 0.11967789 0.091229714
0.15385343 0.15462758 -0.08149131 -0.117165156 0.025161069 -0.06735333 -0.10538884 -0.084397666
-0.030878546 0.13925442 0.16456485 0.039106745 0.0124650495 0.046220448 0.0041331123 -0.044151027
-0.089407615 -0.070026405 0.035170436 0.07492134 -0.048026167 -0.0066048596 0.0478803 -0.063541934
0.0073800557 0.09519378 -0.13653734 -0.058685914 0.057603683 -0.05938501 0.08644195 -0.03880445
-0.111398585 -0.028909694 -0.09593936 -0.030462032 -0.06003427 -0.0792691 -0.0048436755 0.10388634
0.099754766 0.03680955 0.09825651 0.12581049 0.034170054 0.11011482 -0.00094517483 7.986194e-05
0.052089673 0.02275394 -0.004389937 -0.07532051 0.03046021 0.11518354 -0.08063184 -0.054983623
-0.06160732 -0.1001178 -0.0070879725 0.09619201 0.0007412203 0.015105884 -0.0018165221 0.04781606
-0.004792633 -0.06147331 -0.07112281 0.032728616 0.0047901594 -0.047167744 0.071456306 -0.07147593
-0.09767995 6.590228e-05 -0.08578459 -0.06676642 0.09928268 0.048478063 0.03704941 -0.025740258
00000000: d177 7d3d 9e67 813d 0ba7 803a adf5 493d
00000010: 5d29 b33d 350f ab3b 2af8 8e3d 771a d23d
00000020: 0d16 c43c f13e 00be 35de 8ebd 8323 d3bd
00000030: 598f d3bc 8c01 fd3c 1515 59bb 184c 8c3c
00000040: 82c0 88bd d70e 033e e90f 9c3d 83c5 b53d
00000050: b26e 103c 204c 3c3c c9cf d7bd ffd9 4d3d
00000060: f26a fabc 3469 c1bc b937 993c 72a1 01be
00000070: 16ef a0bc ca0b e93d d53c ed3d e51c 43bd
00000080: 85c1 1a3d 0ed7 d0bb 3f34 2fbd cdce 41bd
00000090: 89c2 cd3d 07fe c0bd ab8f 81bd afe6 f33d
000000a0: 25b4 eebd c93b b43c 3853 17bc d935 773b
000000b0: 88b9 93bd bc18 4e3c c7e8 cabd a403 e8bd
000000c0: eae8 45bd 7803 e93d 5389 9b3d 5124 883c
000000d0: 147b fb3d b10e b53c c09e 9fbd ad05 48bd
000000e0: d96b 00ba 867e 26bd 04f5 8d3c 3b20 823d
000000f0: 40a6 b93d 1125 d33c a1ea c13d fff1 c73d
00000100: 6dc3 77bd e6fd 8a3c 0b9e 173e 393a 3f3c
00000110: a0b0 a0bd 042a 0d3e ddf4 78bd 6688 fa3d
00000120: 7da4 973c dbbe aa3b edb1 5dbd 0685 cb3d
00000130: 0ef3 4fbd b60c 1a3e 831c dd3c e629 093d
00000140: 5ad2 873d 8dec 95bd 9819 80bc db3d f53d
00000150: 559c 043e 7c0c 683d 9ae2 30bd 35b8 9cbd
00000160: 7f3d 843d d18e 913c d1bd 113c 5c19 c0bd
00000170: 1f2c af3d bbcc cebd 97fb 183d 9664 38bd
00000180: 1a43 e5bc aa90 1f3b 40bc ddbb d658 813d
00000190: 74ee d53d fb89 473d aff3 f53d 313a 833d
000001a0: 0c1c f73a 9530 a83d d42d 043e 9bc0 2c3e
000001b0: 2e61 66bc 0ea0 9c3d ae19 f53d a5d6 ba3d
000001c0: c18b 1d3e b156 1e3e eae4 a6bd 49f4 efbd
000001d0: 961e ce3c 8bf0 89bd 1bd6 d7bd afd8 acbd
000001e0: 01f5 fcbc b698 0e3e b083 283e 652e 203d
000001f0: 353a 4c3c a751 3d3d 0f6f 873b b5d7 34bd
00000200: 571b b7bd 016a 8fbd e00e 103d 5c70 993d
00000210: 16b7 44bd 946d d8bb 221e 443d 4622 82bd
00000220: 65d4 f13b f5f4 c23d 72d0 0bbe a460 70bd
00000230: d7f1 6b3d b23d 73bd 7a08 b13d 6af1 1ebd
00000240: f124 e4bd 06d4 ecbc db7b c4bd 838b f9bc
00000250: 7fe6 75bd d757 a2bd b2b7 9ebb 5dc2 d43d
00000260: 3a4c cc3d 9cc5 163d b63a c93d 77d4 003e
00000270: e6f5 0b3d e183 e13d 9cc5 77ba 8d7b a738
00000280: fb5b 553d 7966 ba3c 76d9 8fbb a441 9abd
00000290: b187 f93c 59e5 eb3d 4e22 a5bd 8236 61bd
000002a0: f557 7cbd 900a cdbd 3942 e8bb 5100 c53d
000002b0: 744e 423a ab7e 773c 5e18 eeba c6da 433d
000002c0: 850b 9dbb 70cb 7bbd d6a8 91bd 710e 063d
000002d0: c5f6 9c3b f732 41bd af57 923d f961 92bd
000002e0: 6d0c c8bd 0435 8a38 d5af afbd d5bc 88bd
000002f0: b854 cb3d ef90 463d 1fc1 173d 3cdd d2bc

gru.bias_hh_l0 f4 [192]
0.103465274 0.051500373 -0.09099336 -0.07133906 -0.08871063 -0.08692021 0.007372694 -0.08484309
-0.070489116 0.03422268 0.030240126 -0.036498968 -0.10917282 0.118869126 0.10851941 -0.12496541
0.004935551 0.13327093 0.09752432 -0.026179073 -0.11743822 0.026647372 -0.07561996 -0.07188106
0.06940186 0.06071408 0.042609747 0.00540583 -0.019225013 -0.124088734 0.08876102 0.007688226
-0.049878266 -0.08187433 -0.100797206 -0.091876544 0.019663453 -0.11125184 -0.09689972 0.014608742
0.11163845 0.060430102 -0.008335686 -0.05383564 0.00018593953 -0.11135171 -0.021606792 0.0637741
-0.071846545 -0.068204775 0.08601991 0.06806402 0.12487344 -0.106761925 0.083118886 0.064232804
0.06737472 0.0010850052 -0.05968701 -0.103537254 0.027892528 0.10798547 0.017173897 -0.02674332
-0.05722095 0.17402795 0.12570767 0.09853643 0.019026361 -0.044082273 0.05288444 0.0091588
0.068048574 0.1475719 0.12599395 -0.054342095 -0.026134225 -0.06376589 0.1520327 0.060489915
0.11531283 0.0071361866 0.13531548 0.16688031 -0.08440873 -0.09644542 -0.06861316 -0.010709357
0.19434388 0.08631123 -0.022465317 0.016739318 -0.04125984 0.09887237 -0.10591119 -0.028095081
-0.05973298 0.10430728 0.19328187 -0.051957928 -0.0430764 0.16773598 -0.052312277 -0.12137524
-0.00067641307 0.15280974 -0.038135115 0.0053286348 0.05617078 0.0035197814 0.08047834 0.0034708001
0.15711771 -0.014643883 -0.016329769 -0.03404955 0.025453579 0.01954353 0.12181912 0.03271528
-0.070039846 0.004078208 0.21456684 -0.078625195 0.14997172 -0.09140571 0.03335813 0.08664377
-0.016107542 -0.008218449 0.007861268 -0.0093924645 0.09858697 -0.10757268 0.092739776 -0.09434016
-0.0075604166 -0.021912364 -0.05079008 0.02453874 -0.11524248 0.11675724 -0.07177039 -0.027551329
0.0076847035 -0.10048225 -0.12747729 0.0016571614 -0.014316535 -0.04041456 -0.11433959 0.079244755
0.1201878 -0.03404387 0.0076050176 -0.12120184 -0.08508061 0.053689305 -0.034824442 0.087542474
0.11454847 -0.030721156 -0.032016154 -0.0896732 -0.056169704 0.05703443 -0.10525843 0.08151881
0.060157582 0.061726745 0.11990363 -0.05933461 -0.1005962 0.039247498 0.007807653 -0.050442677
-0.08549314 -0.047719285 -0.047718298 0.11310137 0.051325798 -0.11514072 0.020703334 -0.019799808
0.041953377 -0.05096518 0.038480353 0.11643946 -0.029821191 0.006095725 -0.087583065 0.0017611197
00000000: 9ae5 d33d 0ef2 523d ba5a babd 371a 92bd
00000010: ebad b5bd 3903 b2bd a496 f13b 37c2 adbd
00000020: 995c 90bd 152d 0c3d 24ba f73c f17f 15bd
00000030: 0096 dfbd a871 f33d 6d3f de3d dded ffbd
00000040: 67ba a13b 2d78 083e d5ba c73d 7f75 d6bc
00000050: 7383 f0bd 974b da3c a3de 9abd 6136 93bd
00000060: 9022 8e3d 54af 783d 8f87 2e3d 6423 b13b
00000070: c67d 9dbc 3c22 febd 56c8 b53d 84ed fb3b
00000080: 274d 4cbd bbad a7bd c46e cebd c529 bcbd
00000090: 4015 a13c 01d8 e3bd 5c73 c6bd 8159 6f3c
000000a0: b3a2 e43d 8e85 773d 6792 08bc c382 5cbd
000000b0: c3f8 4239 5e0c e4bd ba00 b1bc ff9b 823d
000000c0: 4824 93bd f2ae 8bbd 352b b03d 2665 8b3d
000000d0: a5bd ff3d ffa5 dabd 3c3a aa3d 7d8c 833d
000000e0: c2fb 893d bc36 8e3a 5e7a 74bd 570b d4bd
000000f0: df7e e43c 7c27 dd3d 46b0 8c3c cf14 dbbc
00000100: 8460 6abd 6234 323e 83b9 003e 78cd c93d
00000110: 2cdd 9b3c 9d8f 34bd 5b9d 583d cb0e 163c
00000120: 0d5d 8b3d 171d 173e 8f04 013e d195 5ebd
00000130: 7117 d6bc b197 82bd 76ae 1b3e 46c4 773d
00000140: 2229 ec3d acd6 e93b 2490 0a3e ace2 2a3e
00000150: 7cde acbd 2d85 c5bd 0e85 8cbd 4d76 2fbc
00000160: 1502 473e f1c3 b03d 2f09 b8bc e520 893c
00000170: 1400 29bd 997d ca3d f7e7 d8bd a827 e6bc
00000180: 92aa 74bd 0e9f d53d afeb 453e d6d1 54bd
00000190: e170 30bd fbc2 2b3e 6645 56bd 9593 f8bd
000001a0: 5051 31ba 287a 1c3e 9133 1cbd d49b ae3b
000001b0: 5513 663d 22ac 663b d4d1 a43d 5d76 633b
000001c0: 77e3 203e e6ec 6fbc 02c6 85bc 8a77 0bbd
000001d0: 0684 d03c c119 a03c 4e7c f93d 7500 063d
000001e0: 0d71 8fbd 7da2 853b 69b7 5b3e 3f06 a1bd
000001f0: 3092 193e eb32 bbbd 89a2 083d 4a72 b13d
00000200: f7f3 83bc aca6 06bc 8ccc 003c dae2 19bc
00000210: f7e7 c93d 114f dcbd 5aee bd3d 6a35 c1bd
00000220: 5fbd f7bb 8f81 b3bc 4209 50bd 7805 c93c
00000230: 4004 ecbd 6b1e ef3d 5bfc 92bd 53b3 e1bc
00000240: f7cf fb3b a3c9 cdbd 6889 02be 1c35 d93a
00000250: e68f 6abc bd89 25bd e02a eabd 134b a23d
00000260: 0525 f63d 9671 0bbd 8333 f93b ac38 f8bd
00000270: be3e aebd 51e9 5b3d 13a4 0ebd 7849 b33d
00000280: 6398 ea3d efaa fbbc 5f23 03bd 95a6 b7bd
00000290: 3412 66bd ef9c 693d bb91 d7bd 55f3 a63d
000002a0: cc67 763d 2fd5 7c3d 0990 f53d d908 73bd
000002b0: 6105 cebd fcc1 203d 57d7 ff3b fb9c 4ebd
000002c0: 0717 afbd 4c75 43bd 4374 43bd b1a1 e73d
000002d0: 003b 523d e6ce ebbd 0a9a a93c 3533 a2bc
000002e0: 4ed7 2b3d ddc0 50bd 939d 1d3d d077 ee3d
000002f0: 924b f4bc a6be c73b c05e b3bd 5fd5 e63a

gru.weight_ih_l1 f4 [192, 64]
0.016915875 0.11712361 -0.12462171 0.03425828 0.094126225 0.012038801 0.053582065 0.08272988
0.11033449 -0.043514628 -0.03645703 0.03188024 -0.11845513 0.088188 -0.0062211435 0.13189457
0.069033936 -0.05288053 -0.044361334 0.009101217 -0.05203824 0.017193219 -0.12632559 -0.008285138
0.02559933 0.03402638 -0.11144701 0.008245985 -0.0041190046 -0.032198068 0.05401352 0.06424514
0.045406908 0.02661261 0.09729413 0.02540627 0.02644016 0.04132429 0.07891422 -0.03682181
-0.1021958 -0.034651984 0.078918196 -0.07132517 0.09153646 0.056759574 -0.019449662 0.036663264
0.012646448 0.046322815 0.045856994 -0.045919564 0.013450627 0.043073647 0.021279894 0.06310481
0.0995701 -0.10061272 0.10788984 -0.07897194 -0.07886073 0.02281581 -0.09893908 0.07950254
0.016509516 0.078734905 -0.027454752 -0.091206394 -0.09223769 -0.11749261 -0.025216829 0.08499477
0.078211285 -0.035065595 -0.11671691 -0.10417038 -0.0128198955 0.03610359 0.039832458 0.039208364
-0.081127964 0.05409828 0.113533616 -0.04560884 -0.07082679 -0.053553924 -0.10547615 -0.060007274
-0.043608468 -0.08016254 -0.07191568 -0.088253215 -0.104112655 -0.1213812 0.08199669 0.009005531
0.044254895 0.1090593 0.10761449 0.049030814 0.013356324 0.041064944 -0.029176343 -0.10350611
-0.0410412 0.023027396 0.06111171 -0.05429194 -0.094937965 -0.076392256 -0.01722397 -0.11462416
-0.059272047 0.102348745 0.009859509 0.006917399 0.029824665 0.07730475 0.047586277 -0.02850521
0.11893758 -0.09825192 -0.09418258 0.08256499 -0.07867572 -0.020713817 0.09267324 -0.034867685
-0.11868518 0.03703719 0.101855375 0.054037113 -0.031644452 -0.061066624 -0.116337486 -0.04545218
-0.012632152 0.07867042 0.145193 -0.039616298 -0.100953996 -0.11340486 0.07383468 -0.05074146
-0.03727765 0.051201414 -0.0030409126 -0.0062534874 -0.0044915485 0.06126544 0.09731262 0.046814166
-0.036060654 0.115015306 -0.08628451 -0.091843605 0.01612267 0.0015701146 -0.09598438 -0.032101
-0.118821405 0.020940894 -0.03210905 0.074876726 0.076419614 -0.08075377 -0.081647895 0.022609798
0.13225858 -0.060194835 -0.08397544 -0.07838882 0.07422982 0.014050377 0.09526567 0.0921439
-0.06562916 0.12929812 0.0497399 0.0216845 0.10920755 0.10525826 -0.11651508 -0.11368331
0.12659241 -0.12660372 0.058547374 0.10952138 0.032200303 0.040530417 0.08714477 -0.0964692
0.047605913 0.058536023 0.09803473 -0.007013597 -0.14102624 0.06863206 -0.06726391 0.08935054
-0.09544041 -0.10029337 0.06427886 0.13055123 0.027279263 -0.05006392 -0.0726465 0.038713433
-0.11671749 -0.1473474 -0.022379639 0.014242917 0.08223106 0.0053647924 0.07967402 0.0071479226
0.05044554 -0.103034504 -0.13489792 0.13671151 -0.040767767 -0.09106368 -0.094706036 -0.008684577
-0.11808597 0.0026301867 -0.065958455 0.02060559 -0.001022797 -0.10516245 -0.15657327 -0.08546154
-0.05689942 -0.115157515 0.0053687203 -0.019707419 -0.06043299 0.0381778 -0.076923795 -0.02500977
-0.03956615 -0.058119748 0.051816974 0.021834297 -0.11195423 -0.01401834 -0.009000608 -0.10553746
-0.09620319 -0.02591372 -0.043580577 -0.1020539 0.089673676 -0.014634313 0.041084006 -0.057487864
00000000: 2993 8a3c 81de ef3d ab39 ffbd 6952 0c3d
00000010: 40c5 c03d 643e 453c de78 5b3d 496e a93d
00000020: 0df7 e13d 653c 32bd f753 15bd db94 023d
00000030: 9a98 f2bd e99b b43d bcda cbbb 5f0f 073e
00000040: aa61 8d3d 4199 58bd 3bb4 35bd 451d 153c
00000050: 0d26 55bd cbd8 8c3c 7f5b 01be 63be 07bc
00000060: b0b5 d13c 3f5f 0b3d 543e e4bd 2b1a 073c
00000070: b7f8 86bb 1fe2 03bd 483d 5d3d f592 833d
00000080: 98fc 393d b002 da3c 2542 c73d cf20 d03c
00000090: 0999 d83c a943 293d c79d a13d 77d2 16bd
000000a0: 084c d1bd 3def 0dbd dd9f a13d ee12 92bd
000000b0: 7877 bb3d ba7c 683d e654 9fbc 382c 163d
000000c0: 0c33 4f3c febc 3d3d 8bd4 3b3d 2716 3cbd
000000d0: 0560 5c3c fe6d 303d 2c53 ae3c 183d 813d
000000e0: 69eb cb3d 0b0e cebd 59f5 dc3d 0abc a1bd
000000f0: bc81 a1bd 39e8 ba3c 93a0 cabd 3ad2 a23d
00000100: f73e 873c c43f a13d cae8 e0bc 6bca babd
00000110: 1de7 bcbd f79f f0bd 8693 cebc bd11 ae3d
00000120: 3d2d a03d f1a0 0fbd 4609 efbd 4857 d5bd
00000130: 8a0a 52bc 5ce1 133d 5c27 233d f398 203d
00000140: 6b26 a6bd 2896 5d3d 5084 e83d 56d0 3abd
00000150: a30d 91bd 5c5b 5bbd e103 d8bd 30ca 75bd
00000160: cb9e 32bd 422c a4bd 8748 93bd 1abe b4bd
00000170: 0439 d5bd b596 f8bd e1ed a73d ef8b 133c
00000180: 9f44 353d 7b5a df3d fc64 dc3d 89d4 483d
00000190: 7cd4 5a3c b733 283d 3a03 efbc 03fb d3bd
000001a0: d11a 28bd f3a3 bc3c 4650 7a3d 3a61 5ebd
000001b0: d66e c2bd 8b73 9cbd 4819 8dbc 12c0 eabd
000001c0: 3fc7 72bd 389c d13d c789 213c 59ab e23b
000001d0: db52 f43c f451 9e3d d4e9 423d c283 e9bc
000001e0: 8c95 f33d 4d38 c9bd cce2 c0bd d517 a93d
000001f0: bc20 a1bd 06b0 a9bc 78cb bd3d 6bd1 0ebd
00000200: 3711 f3bd 4fb4 173d 8d99 d03d 0556 5d3d
00000210: 9d9d 01bd ff20 7abd 5942 eebd 112c 3abd
00000220: 16f7 4ebc f51d a13d 79ad 143e b344 22bd
00000230: f8c0 cebd cf40 e8bd a336 973d 47d6 4fbd
00000240: 73b0 18bd 93b8 513d 0c4a 47bb 0eea ccbb
00000250: d72d 93bb 78f1 7a3d d74b c73d 36c0 3f3d
00000260: 56b4 13bd 258d eb3d efb5 b0bd 8018 bcbd
00000270: b113 843c 4ecc cd3a 7593 c4bd 577c 03bd
00000280: a358 f3bd 3d8c ab3c c784 03bd f858 993d
00000290: e381 9c3d 3c62 a5bd 0337 a7bd 2f38 b93c
000002a0: cb6e 073e dc8e 76bd 51fb abbd 518a a0bd
000002b0: ce05 983d 8d33 663c a61a c33d f1b5 bc3d
000002c0: 9568 86bd ba66 043e 11bc 4b3d b1a3 b13c
000002d0: 35a8 df3d a591 d73d 759f eebd ccd2 e8bd
000002e0: 71a1 013e 68a4 01be 5fcf 6f3d bf4c e03d
000002f0: 77e4 033d 3903 263d f578 b23d a591 c5bd
00000300: 6bfe 423d 78c3 6f3d 6fc6 c83d 51d2 e5bb
00000310: 2f69 10be f78e 8c3d a9c1 89bd 6afd b63d
00000320: 4376 c3bd 9c66 cdbd a3a4 833d 39af 053e
00000330: c378 df3c d30f 4dbd b0c7 94bd fa91 1e3d
00000340: 9409 efbd 3de2 16be 8155 b7bc 205b 693c
00000350: c268 a83d 24cb af3b 222c a33d 1f39 ea3b
00000360: fc9f 4e3d c103 d3bd ae22 0abe 1afe 0b3e
00000370: 1afc 26bd 987f babd 3df5 c1bd c249 0ebc
00000380: 0fd7 f1bd 365f 2c3b 3a15 87bd 0ecd a83c
00000390: 5f0f 86ba 695f d7bd be54 20be 7606 afbd
000003a0: 5e0f 69bd b4d7 ebbd 17ec af3b 7471 a1bc
000003b0: 9588 77bd 5360 1c3d 398a 9dbd 4ae1 ccbc
000003c0: 1e10 22bd f90e 6ebd 093e 543d d7dd b23c
000003d0: 4248 e5bd 2ead 65bc 4977 13bc 0624 d8bd
000003e0: 2e06 c5bd 0249 d4bc 8c81 32bd a301 d1bd
000003f0: d5a6 b73d c2c4 6fbc b447 283d 6578 6bbd

gru.weight_hh_l1 f4 [192, 64]
0.015920725 0.007685608 0.0060081272 -0.10788871 0.090871215 0.10187668 0.03706947 -0.020506015
0.08668714 0.11624353 0.02312974 0.11986322 -0.072171055 0.030176414 0.038012017 0.10198179
0.07700074 0.08926807 -0.007879669 -0.042375393 0.13282286 -0.010874818 -0.09074364 -0.11384752
-0.09435621 0.025794318 0.004975867 -0.038919516 -0.024704618 0.055195127 0.07382604 0.018915199
-0.028422657 -0.05560493 0.016942069 -0.0734787 0.03061436 -0.08082181 0.055727974 -0.067834064
-0.101559915 -0.082519256 0.08059403 -0.053343248 0.042982914 -0.046059243 0.07570423 0.0021509023
0.093885005 0.081320666 -0.02337667 -0.010932835 0.09429856 -0.096817195 -0.030417705 0.11818245
0.01661421 0.010309987 0.060410023 0.07746265 0.09760046 0.12855138 -0.07264333 0.018185388
-0.028022174 -0.08344117 0.023135059 -0.10486541 -0.097993895 -0.13807757 -0.052894153 0.10039287
-0.021564044 0.027263856 -0.016206589 0.052095536 -0.027639896 0.10582044 0.117702335 -0.09300886
-0.08695627 0.08507758 0.095782965 0.06735816 -0.025367334 -0.010037668 -0.09898994 -0.009602963
0.014922295 0.07294499 -0.0729761 0.08271226 -0.04046679 0.14559038 0.111796506 -0.13002805
0.13214813 -0.036548395 -0.019604336 0.042373564 0.025810957 -0.07113712 0.14057729 0.08722428
-0.09553209 0.013617629 0.03249654 -0.064411886 -0.105359696 0.082128 0.007366691 0.0819634
0.09841321 -0.08300344 0.00590536 0.109297864 0.13595694 0.08470434 0.07749727 0.07473872
0.03681681 0.120136164 -0.06397049 -0.03059986 -0.041639496 -0.115550354 0.0069936803 -0.017593171
0.06737378 0.075396955 -0.024508797 0.047883753 0.020910008 -0.016000072 0.025726553 0.015243776
0.115939714 0.11614877 -0.09261029 0.027179873 -0.115720324 0.10859601 -0.012396899 -0.06311493
0.09911577 -0.035359733 0.072665505 0.06813459 0.11583013 -0.035252232 -0.09439607 0.011529902
-0.011474018 -0.11046198 0.09616755 0.08756727 0.06610318 0.07815216 0.14136207 0.10574808
-0.011406597 0.023273531 -0.07339572 -0.10095062 -0.12142383 -0.1000146 -0.042341277 0.056676514
-0.051321637 0.048795033 0.010237864 0.07011468 0.026998343 0.043009453 -0.116839506 0.059577104
-0.112374164 0.00014533178 -0.006091414 -0.03756141 -0.030424293 0.080472805 -0.053728256 -0.11272663
-0.08894301 0.05063442 0.05806295 -0.07597472 -0.054607898 0.10610654 0.09540713 -0.020908091
-0.044275418 0.0133751575 0.06445341 0.018325942 0.10991998 0.101831846 -0.094270356 0.028850978
0.00013091562 0.019856215 -0.09284371 0.1049881 0.09050733 -0.055212643 0.08722537 0.17223433
0.001164492 -0.02718771 -0.07709425 -0.0819138 0.015317663 0.05094689 0.07672231 0.054235265
0.12845314 0.10147169 0.012208507 -0.00752017 0.016494617 -0.11244584 0.020905266 -0.11382816
-0.08316652 0.03722551 -0.06483182 0.13449615 0.067067415 -0.14858255 -0.023841927 -0.11111652
0.007462806 0.09450373 0.018948415 0.053353995 -0.113167055 -0.04583572 0.07956273 -0.033041626
-0.0871035 -0.09294792 -0.11538458 0.10092784 0.002291289 0.039380547 0.0067598857 0.10300972
-0.073777094 -0.094530016 0.06993052 0.09239201 0.039662067 -0.07686504 -0.0052852947 0.049276568
00000000: 2e6c 823c 8ed7 fb3b d3df c43b c2f4 dcbd
00000010: b01a ba3d b9a4 d03d 28d6 173d 3bfc a7bc
00000020: 0789 b13d 1611 ee3d 957a bd3c d97a f53d
00000030: 6bce 93bd 8734 f73c 7db2 1b3d d4db d03d
00000040: 90b2 9d3d 2ed2 b63d ba19 01bc d291 2dbd
00000050: b702 083e 4b2c 32bc cdd7 b9bd e328 e9bd
00000060: d43d c1bd 9b4e d33c 990c a33b 126a 1fbd
00000070: 5761 cabc 4914 623d 1b32 973d 0cf4 9a3c
00000080: a2d6 e8bc ffc1 63bd 18ca 8a3c 007c 96bd
00000090: f7ca fa3c e885 a5bd 0443 643d 96ec 8abd
000000a0: a5fe cfbd dbff a8bd 7c0e a53d 737e 5abd
000000b0: da0e 303d 9ea8 3cbd d20a 9b3d 27f6 0c3b
000000c0: c846 c03d 738b a63d 6e80 bfbc a21f 33bc
000000d0: 9a1f c13d 1848 c6bd 8d2e f9bc a409 f23d
000000e0: 861a 883c 38eb 283c 8070 773d bda4 9e3d
000000f0: c0e2 c73d f9a2 033e 07c6 94bd 86f9 943c
00000100: c28e e5bc 34e3 aabd bc85 bd3c adc3 d6bd
00000110: 06b1 c8bd 3564 0dbe 8aa7 58bd c79a cd3d
00000120: 14a7 b0bc 7358 df3c aec3 84bc 2162 553d
00000130: 106d e2bc 63b8 d83d ec0d f13d 6e7b bebd
00000140: 2116 b2bd 273d ae3d dc29 c43d 13f3 893d
00000150: 28cf cfbc 0875 24bc 3dbb cabd bf55 1dbc
00000160: a47c 743c 2f64 953d 7e74 95bd 0c65 a93d
00000170: 81c0 25bd a515 153e 91f5 e43d 1326 05be
00000180: d751 073e c5b3 15bd 4699 a0bc e78f 2d3d
00000190: 8071 d33c 57b0 91bd 7ef3 0f3e a5a2 b23d
000001a0: 54a6 c3bd 7a1c 5f3c 181b 053d 61ea 83bd
000001b0: d3c6 d7bd ba32 a83d 4864 f13b 6ddc a73d
000001c0: dd8c c93d b5fd a9bd c081 c13b 8fd7 df3d
000001d0: 4c38 0b3e 7879 ad3d e4b6 9e3d 9d10 993d
000001e0: 39cd 163d f309 f63d f602 83bd 8fac fabc
000001f0: 2d8e 2abd aaa5 ecbd 3e2b e53b 8e1f 90bc
00000200: 44fb 893d b869 9a3d acc6 c8bc c121 443d
00000210: 774b ab3c 9512 83bc 7ec0 d23c 08c1 793c
00000220: cd71 ed3d 68df ed3d 77aa bdbd 53a8 de3c
00000230: c7fe ecbd 9667 de3d 5d1c 4bbc 6742 81bd
00000240: 35fd ca3d 5ed5 10bd a7d1 943d 268a 8b3d
00000250: 5938 ed3d a564 10bd ba52 c1bd eae7 3c3c
00000260: 85fd 3bbc e439 e2bd 7ef3 c43d 7856 b33d
00000270: 1b61 873d 3d0e a03d 38c1 103e 7392 d83d
00000280: bce2 3abc 22a8 be3c 7f50 96bd 33bf cebd
00000290: 0fad f8bd 74d4 ccbd 0c6e 2dbd a225 683d
000002a0: a336 52bd 4ddd 473d b7bc 273c 4998 8f3d
000002b0: a12b dd3c ae2a 303d 8d49 efbd 1f07 743d
000002c0: 6d24 e6bd 3464 1839 7c9a c7bb fed9 19bd
000002d0: 5e3c f9bc edce a43d 2912 5cbd 38dd e6bd
000002e0: c127 b6bd 0a66 4f3d 6ad3 6d3d a298 9bbd
000002f0: 88ac 5fbd 634e d93d d064 c33d 7247 abbc
00000300: 245a 35bd 7a23 5b3c 2600 843d 4920 963c
00000310: ba1d e13d 378d d03d d110 c1bd e358 ec3c
00000320: 6546 0939 80a9 a23c d824 bebd 0004 d73d
00000330: e85b b93d a726 62bd 37a3 b23d 325e 303e
00000340: dea1 983a c3b8 debc 97e3 9dbd 6cc2 a7bd
00000350: eff6 7a3c b0ad 503d 9620 9d3d cc25 5e3d
00000360: 3889 033e 64d0 cf3d 3106 483c c26b f6bb
00000370: b81f 873c 014a e6bd 8541 ab3c bd1e e9bd
00000380: 3553 aabd c779 183d 8cc6 84bd 5cb9 093e
00000390: a45a 893d 0626 18be 2550 c3bc 0f91 e3bd
000003a0: 8e8a f43b 2c8b c13d b539 9b3c b889 5a3d
000003b0: 21c4 e7bd 3cbe 3bbd c9f1 a23d a856 07bd
000003c0: 5263 b2bd 7b5b bebd c04e ecbd 41b3 ce3d
000003d0: 7329 163b 7f4d 213d 0882 dd3b c3f6 d23d
000003e0: 7218 97bd f498 c1bd bc37 8f3d 0638 bd3d
000003f0: b174 223d 6b6b 9dbd 4430 adbb 3ad6 493d

gru.bias_ih_l1 f4 [192]
-0.058930047 -0.004989109 -0.088582166 0.09418409 -0.04500319 0.07184307 0.11902767 -0.11701239
0.054889444 0.035233412 0.07711338 0.040885605 0.018977027 -0.101309754 -0.108101815 -0.049075373
0.07927751 -0.11412124 -0.105514586 -0.08296377 -0.13272628 -0.06536316 -0.107698284 0.103265785
0.1248695 -0.08246674 0.05264466 -0.11002123 -0.11264351 0.04380477 -0.07671322 -0.03850871
0.09451175 0.0070042396 -0.028734326 0.03179431 0.008902038 -0.04921357 0.029831711 0.006520513
0.049848128 0.0068457853 -0.026556388 0.059424955 -0.016738573 0.022676375 -0.113819264 -0.039871667
-0.07206701 0.113720424 -0.12788104 -0.07939196 0.08655582 0.08274297 -0.07890267 -0.022956677
0.04284851 -0.080662094 0.03787617 -0.046557616 -0.04122574 0.062109884 -0.061045032 0.018663025
-0.04429435 0.15042682 0.0521885 -0.023134891 0.04279953 -0.10011439 0.05982546 0.057881918
-0.0017513564 0.06036916 0.009755687 -0.057725832 0.08370261 0.09426796 -0.056768585 0.06426558
-0.043941047 0.090065576 -0.09155176 0.1003432 0.027181044 0.09610256 -0.03879382 0.0056100385
0.0959706 -0.10769746 -0.03461839 0.08223801 0.06084192 0.066813216 0.11299896 0.12404311
0.10482729 -0.0257833 0.029826531 -0.037314776 -0.12977079 -0.05534128 0.08316779 0.07106775
0.12611355 -0.04449851 0.12737095 -0.019420551 -0.0051396517 0.11446442 -0.007851587 0.01935762
0.029944783 -0.009922899 0.0182201 0.11047349 0.08886602 0.12159187 0.088304415 0.016676378
-0.078038044 -0.016385578 0.2146274 -0.038875323 -0.075550035 0.04058643 0.13713858 -0.0068065757
-0.036847003 0.06694776 -0.08173912 -0.061009917 -0.07230568 0.034503113 0.066691466 0.120996796
-0.044852577 -0.043752547 -0.062483143 -0.0854753 0.07899878 -0.09690023 -0.005533928 -0.06672639
0.0327001 0.079755574 0.056294665 -0.007318384 -0.037890043 -0.055345163 0.08745228 -0.019309446
-0.076611966 0.04760847 -0.030935777 -0.03306265 0.022214867 -0.09147969 0.007909835 0.09195477
0.04233297 0.026110362 -0.03604354 -0.028542712 0.0897551 0.09146307 -0.10239107 0.12352292
-0.07980046 -0.009286214 0.037840836 -0.026521502 0.098426 0.12741618 0.055876315 -0.108988486
-0.080839984 0.06791209 0.057524562 -0.031136258 -0.06254207 0.105127014 0.061512265 0.018049147
-0.034226436 0.083432786 0.028976155 -0.04754217 -0.11430267 -0.008863758 -0.07430161 -0.07607651
00000000: a260 71bd ae7b a3bb 916a b5bd 97e3 c03d
00000010: 4455 38bd 7622 933d c7c4 f33d 31a4 efbd
00000020: c1d3 603d e950 103d 9fed 9d3d aa77 273d
00000030: b675 9b3c 7d7b cfbd 7c64 ddbd 4203 49bd
00000040: 3f5c a23d 66b8 e9bd 0818 d8bd e9e8 a9bd
00000050: 66e9 07be 1fdd 85bd eb90 dcbd 037d d33d
00000060: 95bb ff3d 52e4 a8bd eda1 573d d052 e1bd
00000070: a4b1 e6bd a16c 333d d21b 9dbd 4fbb 1dbd
00000080: 608f c13d d283 e53b 4064 ebbc c03a 023d
00000090: dbd9 113c 2b94 49bd a261 f43c 07aa d53b
000000a0: 8d2d 4c3d 9c52 e03b c88c d9bc 9567 733d
000000b0: 551f 89bc cec3 b93c 131a e9bd 7950 23bd
000000c0: de97 93bd 41e6 e83d 3ff3 02be 4098 a2bd
000000d0: 2e44 b13d 2575 a93d b997 a1bd a40f bcbc
000000e0: eb81 2f3d 2b32 a5bd 0b24 1b3d 33b3 3ebd
000000f0: 52dc 28bd ef66 7e3d 5b0a 7abd 33e3 983c
00000100: fe6d 35bd 7d09 1a3e 9cc3 553d 6285 bdbc
00000110: 8f4e 2f3d c608 cdbd 8b0b 753d 9715 6d3d
00000120: c58d e5ba a745 773d 51d6 1f3c ec71 6cbd
00000130: 466c ab3d 8f0f c13d 2d86 68bd ac9d 833d
00000140: 87fb 33bd 4d74 b83d 7d7f bbbd bc80 cd3d
00000150: c8aa de3c 6bd1 c43d 45e6 1ebd 6ad4 b73b
00000160: 3c8c c43d 7c90 dcbd 03cc 0dbd 676c a83d
00000170: 6135 793d 5ed5 883d 006c e73d 500a fe3d
00000180: b1af d63d 8037 d3bc c556 f43c 61d7 18bd
00000190: a2e2 04be 8aad 62bd e053 aa3d f88b 913d
000001a0: e923 013e 1244 36bd 886d 023e d917 9fbc
000001b0: 866a a8bb 526c ea3d f1a3 00bc df93 9e3c
000001c0: c34e f53c a893 22bc 5242 953c ed3f e23d
000001d0: 63ff b53d 2905 f93d f2d8 b43d e69c 883c
000001e0: 69d2 9fbd 0c3b 86bc 49c7 5b3e bb3b 1fbd
000001f0: fab9 9abd f53d 263d 0e6e 0c3e b209 dfbb
00000200: e2ec 16bd e81b 893d d766 a7bd 89e5 79bd
00000210: 0015 94bd 2353 0d3d 8995 883d 2bcd f73d
00000220: 56b7 37bd df35 33bd 53ee 7fbd ad0d afbd
00000230: 1dca a13d a173 c6bd f455 b5bb d8a7 88bd
00000240: 8af0 053d e456 a33d 3c95 663d 0ecf efbb
00000250: 9732 1bbd 9cb1 62bd 2e1a b33d d82e 9ebc
00000260: bce6 9cbd 1901 433d 076d fdbc b46c 07bd
00000270: f4fb b53c b459 bbbd 4198 013c c852 bc3d
00000280: 5665 2d3d 66e5 d53c 64a2 13bd 68d2 e9bc
00000290: 86d1 b73d fd50 bb3d 69b2 d1bd 96f9 fc3d
000002a0: 6c6e a3bd 3425 18bc fefe 1a3d 9f43 d9bc
000002b0: 9293 c93d 6379 023e 90de 643d 5b35 dfbd
000002c0: 6f8f a5bd 7e15 8b3d e09e 6b3d 7711 ffbc
000002d0: 0f16 80bd d54c d73d 49f4 7b3d cedb 933c
000002e0: 0531 0cbd cfde aa3d 675f ed3c 94bb 42bd
000002f0: 8517 eabd 4c39 11bc 712b 98bd 00ce 9bbd

gru.bias_hh_l1 f4 [192]
-0.08009901 0.049914632 0.06757011 -0.016557353 0.07472844 0.08919911 0.077667154 0.1165144
0.07421124 0.06689264 0.11186617 -0.019962711 0.12732042 0.093355946 0.014237001 -0.055504177
0.029705008 0.07606815 0.00077209005 -0.095386095 -0.02500796 -0.028675081 -0.0912999 0.025730947
0.0016594228 -0.0289842 -0.036752906 -0.02022202 0.006994886 -0.043419287 0.012191499 0.05283687
0.04868898 0.026496299 -0.075547546 -0.081237495 -0.104378894 -0.122235894 0.07499015 0.08175737
0.022840848 0.08784336 -0.03027175 0.0832461 0.09494275 -0.10864123 0.07053686 0.08604604
-0.09602624 0.069656305 -0.039174143 0.04512596 -0.04915151 -0.12022189 -0.06532042 -0.1255288
-0.13054258 0.06368664 -0.04389914 0.07915228 -0.03461937 -0.058718264 -0.08417373 0.063544855
-0.028025044 -0.05293099 -0.08192003 0.096121654 0.13653578 -0.016966574 0.010172406 0.06714305
0.08193082 0.14777063 0.1463858 0.013743071 0.09912704 0.05987032 -0.06705759 0.17372026
0.08744743 -0.006233611 0.110444866 0.033810988 -0.03373508 0.15543228 0.012646312 0.10428807
0.15652645 0.12327984 -0.0075095063 0.025191505 0.106292225 0.061127942 -0.012940497 0.011215634
-0.04935814 0.08617996 0.03213972 -0.04843263 -0.07941354 -0.06463722 0.1428473 -0.12039162
0.019375633 -0.015698848 0.1460067 -0.061579634 0.063164406 0.00427139 -0.030241486 -0.10628843
0.103694014 0.056225266 -0.011824504 0.018918231 0.021767417 -0.0061156987 -0.0044742813 0.08381753
0.13666992 -0.05523754 0.14814107 -0.09736407 0.031242369 0.021592233 0.053343672 0.062399626
-0.033602577 -0.015746707 0.062242806 0.106118366 0.026293542 0.020609783 -0.075095326 0.09267275
0.06032587 -0.017116912 -0.039373018 0.1097225 -0.008873793 0.038688507 0.09692522 0.06277364
0.01524743 -0.106931694 -0.045209873 0.1098853 0.06869111 -0.10285059 0.10007921 0.05403923
-0.03623481 -0.05281289 -0.05067942 -0.04060172 0.055722073 -0.07489498 0.073091045 -0.033985816
-0.099195465 0.02984478 0.051889963 -0.045175526 -0.10516295 -0.0018742374 -0.005956063 -0.1161402
0.114494324 0.081629954 -0.011474512 0.062204417 0.055326805 -0.04718962 0.046856403 0.002355504
0.050383717 0.12452685 -0.062487625 0.08684908 0.04888287 -0.05807228 -0.04671128 -0.08853666
-0.028221024 -0.102996625 -0.11312049 0.06166289 -0.12020102 0.05093279 0.045485653 -0.07265177
00000000: f30a a4bd 4973 4c3d 3362 8a3d 49a3 87bc
00000010: 390b 993d 06ae b63d f50f 9f3d 1a9f ee3d
00000020: 10fc 973d 02ff 883d 171a e53d d788 a3bc
00000030: 4960 023e 6731 bf3d 4f42 693c 5958 63bd
00000040: eb57 f33c 9ec9 9b3d 1666 4a3a c959 c3bd
00000050: 7edd ccbc 01e8 eabc 71fb babd b5c9 d23c
00000060: fd80 d93a 4670 edbc 378a 16bd a6a8 a5bc
00000070: 5b35 e53b 6cd8 31bd dabe 473c 796b 583d
00000080: 196e 473d c40e d93c acb8 9abd d85f a6bd
00000090: 9ac4 d5bd d056 fabd 7094 993d 6870 a73d
000000a0: bb1c bb3c 38e7 b33d 76fc f7bc ee7c aa3d
000000b0: 5871 c23d 4b7f debd a175 903d e838 b03d
000000c0: 68a9 c4bd f7a7 8e3d 1175 20bd 00d6 383d
000000d0: 1853 49bd e536 f6bd b6c6 85bd 9f8a 00be
000000e0: f4ac 05be 246e 823d 96cf 33bd 971a a23d
000000f0: 0acd 0dbd 9082 70bd 4763 acbd ce23 823d
00000100: c794 e5bc 2ace 58bd b0c5 a7bd 6edb c43d
00000110: 09d0 0b3e 7cfd 8abc 2aaa 263c 4c82 893d
00000120: 59cb a73d 2f51 173e 29e6 153e 9e2a 613c
00000130: 1e03 cb3d 953a 753d 7d55 89bd b9e3 313e
00000140: a317 b33d 5243 ccbb eb30 e23d 647d 0a3d
00000150: cc2d 0abd a429 1f3e 7a32 4f3c fc94 d53d
00000160: 7848 203e 247a fc3d 4e12 f6bb 6a5e ce3c
00000170: bdaf d93d 4b61 7a3d 6104 54bc c7c1 373c
00000180: c32b 4abd 1e7f b03d f0a4 033d 4b61 46bd
00000190: 91a3 a2bd 8560 84bd 9046 123e e28f f6bd
000001a0: a6b9 9e3c df9a 80bc c882 153e ed3a 7cbd
000001b0: 575c 813d 04f7 8b3b febc f7bc c0ad d9bd
000001c0: 875d d43d 774c 663d 90bb 41bc 68fa 9a3c
000001d0: 9551 b23c 3366 c8bb fe9c 92bb 86a8 ab3d
000001e0: 33f3 0b3e c240 62bd 4bb2 173e d066 c7bd
000001f0: ffef ff3c 32e2 b03c e57e 5a3d c096 7f3d
00000200: dba2 09bd 3dff 80bc 50f2 7e3d 9654 d93d
00000210: 8e65 d73c d9d5 a83c 94cb 99bd 36cb bd3d
00000220: 4218 773d c438 8cbc 9a45 21bd 31b6 e03d
00000230: 6363 11bc d777 1e3d bb80 c63d 778f 803d
00000240: 5bd0 793c 01ff dabd fd2d 39bd 8b0b e13d
00000250: edad 8c3d 55a3 d2bd 54f6 cc3d 3d58 5d3d
00000260: f46a 14bd 5452 58bd 3995 4fbd fd4d 26bd
00000270: d43c 643d 8a62 99bd c2b0 953d b634 0bbd
00000280: fe26 cbbd 0a7d f43c 928a 543d f909 39bd
00000290: ac5f d7bd f9a8 f5ba 142b c3bb eada edbd
000002a0: 007c ea3d 9b2d a73d 97ff 3bbc 0fca 7e3d
000002b0: 5c9e 623d e749 41bd 80ec 3f3d cd5e 1a3b
000002c0: 285f 4e3d ef07 ff3d 06f3 7fbd eedd b13d
000002d0: 6739 483d 33dd 6dbd 5454 3fbd b552 b5bd
000002e0: c72f e7bc e5ef d2bd b7ab e7bd 3a92 7c3d
000002f0: f42b f6bd e79e 503d 2a4f 3a3d 74ca 94bd
